…
armup_bias_lr=0.1, warmup_epochs=5.0, warmup_momentum=0.8, weight_decay=0.0005, workers=4, workspace=None
147.9s 296 [KDownloading https://ultralytics.com/assets/Arial.ttf to '/root/.config/Ultralytics/Arial.ttf': 100% ━━━━━━━━━━━━ 755.1KB 123.0MB/s 0.0s[KDownloading https://ultralytics.com/assets/Arial.ttf to '/root/.config/Ultralytics/Arial.ttf': 100% ━━━━━━━━━━━━ 755.1KB 105.4MB/s 0.0s
157.8s 297 Overriding model.yaml nc=80 with nc=1
157.8s 298 
157.8s 299 from  n    params  module                                       arguments
157.8s 300 0                  -1  1      1392  ultralytics.nn.modules.conv.Conv             [3, 48, 3, 2]
157.8s 301 1                  -1  1     41664  ultralytics.nn.modules.conv.Conv             [48, 96, 3, 2]
157.8s 302 2                  -1  2    111360  ultralytics.nn.modules.block.C2f             [96, 96, 2, True]
157.8s 303 3                  -1  1    166272  ultralytics.nn.modules.conv.Conv             [96, 192, 3, 2]
157.8s 304 4                  -1  4    813312  ultralytics.nn.modules.block.C2f             [192, 192, 4, True]
157.8s 305 5                  -1  1    664320  ultralytics.nn.modules.conv.Conv             [192, 384, 3, 2]
157.8s 306 6                  -1  4   3248640  ultralytics.nn.modules.block.C2f             [384, 384, 4, True]
157.8s 307 7                  -1  1   1991808  ultralytics.nn.modules.conv.Conv             [384, 576, 3, 2]
157.9s 308 8                  -1  2   3985920  ultralytics.nn.modules.block.C2f             [576, 576, 2, True]
157.9s 309 9                  -1  1    831168  ultralytics.nn.modules.block.SPPF            [576, 576, 5]
157.9s 310 10                  -1  1         0  torch.nn.modules.upsampling.Upsample         [None, 2, 'nearest']
157.9s 311 11             [-1, 6]  1         0  ultralytics.nn.modules.conv.Concat           [1]
157.9s 312 12                  -1  2   1993728  ultralytics.nn.modules.block.C2f             [960, 384, 2]
157.9s 313 13                  -1  1         0  torch.nn.modules.upsampling.Upsample         [None, 2, 'nearest']
157.9s 314 14             [-1, 4]  1         0  ultralytics.nn.modules.conv.Concat           [1]
157.9s 315 15                  -1  2    517632  ultralytics.nn.modules.block.C2f             [576, 192, 2]
157.9s 316 16                  -1  1    332160  ultralytics.nn.modules.conv.Conv             [192, 192, 3, 2]
157.9s 317 17            [-1, 12]  1         0  ultralytics.nn.modules.conv.Concat           [1]
157.9s 318 18                  -1  2   1846272  ultralytics.nn.modules.block.C2f             [576, 384, 2]
157.9s 319 19                  -1  1   1327872  ultralytics.nn.modules.conv.Conv             [384, 384, 3, 2]
157.9s 320 20             [-1, 9]  1         0  ultralytics.nn.modules.conv.Concat           [1]
158.0s 321 21                  -1  2   4207104  ultralytics.nn.modules.block.C2f             [960, 576, 2]
158.0s 322 22        [15, 18, 21]  1   3776275  ultralytics.nn.modules.head.Detect           [1, [192, 384, 576]]
158.5s 323 Model summary: 169 layers, 25,856,899 parameters, 25,856,883 gradients, 79.1 GFLOPs
158.5s 324 
158.5s 325 Transferred 469/475 items from pretrained weights
158.7s 326 Freezing layer 'model.22.dfl.conv.weight'
158.7s 327 [34m[1mAMP: [0mrunning Automatic Mixed Precision (AMP) checks...
159.3s 328 [KDownloading https://github.com/ultralytics/assets/releases/download/v8.3.0/yolo11n.pt to 'yolo11n.pt': 100% ━━━━━━━━━━━━ 5.4MB 152.4MB/s 0.0s[KDownloading https://github.com/ultralytics/assets/releases/download/v8.3.0/yolo11n.pt to 'yolo11n.pt': 100% ━━━━━━━━━━━━ 5.4MB 148.1MB/s 0.0s
…
